checkpoint.pth (torch_old, 54575 bytes, 6 tensors)

fc1.weight f4 [128, 37]
-0.026335236 0.1941481 -0.18173112 -0.120987624 -0.0056894696 -0.023862073 0.06238425 0.1312125
-0.014589429 -0.016815381 0.05329197 -0.109693535 -0.14645761 -0.053200264 0.16322045 -0.046719704
0.13415293 0.10078864 -0.111452825 -0.09150882 -0.021422114 0.23137444 -0.06892849 0.1607984
0.035277773 -0.047350608 0.21973644 -0.2181066 -0.1034954 -0.085918374 -0.10307826 0.20214267
-0.18126151 -0.07567826 -0.23110801 -0.15396968 -0.09596634 0.116933495 0.16424452 0.01196182
0.008645996 -0.036840342 -0.026297832 -0.088207975 -0.15910384 -0.043503415 0.046861965 0.18595503
-0.16747782 0.013614035 0.16215171 0.3880096 0.03938548 0.08476485 0.09603666 -0.0967985
0.0073445505 -0.20397167 -0.02474293 -0.14184435 0.107622415 0.12848929 -0.14668712 0.11510849
0.1009342 -0.014045754 -0.04468748 -0.0008983753 0.16899672 0.103356 -0.12668973 -0.16875377
0.06461042 0.13621266 0.13139395 0.25866312 -0.1457599 -0.1429585 0.074167915 -0.10896474
-0.111416 0.11241606 0.12500237 -0.31666797 0.13585034 -0.16197251 -0.0619519 -0.07525477
0.4684088 -0.14794123 0.11495577 0.04880576 0.11768855 -0.032266654 -0.25510943 -0.019613085
0.011430455 0.034408927 -0.055714294 -0.15585014 0.21963145 0.07777492 -0.07168209 -0.16228928
-0.20649458 0.04615911 -0.17354116 -0.12681025 -0.25824168 0.024683699 -0.06732636 0.0815258
-0.12021656 0.17246933 0.1126626 -0.19439942 -0.073764816 -0.059174735 0.09814175 0.00019457981
0.13236073 -0.046503413 -0.11384178 0.112051435 -0.13788477 -0.101020046 -0.08159478 0.004615975
-0.12736408 -0.18007265 -0.00919532 0.070962936 -0.13918419 -0.04992628 0.1722048 0.01994591
-0.07531486 0.056024138 -0.029808579 0.15309918 0.18557721 0.013370178 0.092377864 0.08021465
-0.14768314 -0.069317505 0.11194013 -0.0010657161 -0.15032153 -0.12598088 -0.17214943 -0.13875408
-0.04808117 0.0556878 0.08888085 -0.18281044 0.10254912 -0.171646 -0.07356512 -0.06665929
-0.050076433 -0.032278538 -0.1803718 -0.1603588 -0.025725067 -0.03668349 -0.07468233 0.0373726
-0.14796868 -0.011094838 0.10752213 -0.06705703 0.13784093 0.04112703 -0.14836366 0.06520537
-0.018970728 -0.10873226 0.1345948 -0.13285004 -0.04731979 -0.03442 0.07840986 0.045891076
0.07899459 0.026842726 -0.039533794 -0.034574002 -0.13547815 0.06450668 0.09931298 0.11248587
-0.115963474 0.007332176 -0.14620578 -0.090499036 -0.09579619 0.02496628 -0.09796752 -0.028263448
-0.024300294 0.105975375 -0.12427249 -0.11286192 -0.11929994 0.11506833 -0.05909568 0.10745249
0.059447914 -0.00064573204 -0.03244004 -0.032498643 0.020626545 -0.03753963 -0.030011864 0.02097617
-0.12859373 -0.11738288 0.13275097 -0.1637572 -0.011804864 0.16262983 0.06082476 -0.010390329
-0.19025324 0.08143963 -0.14587423 0.036713995 -0.08261672 -0.095949896 0.022289967 0.07113324
0.062478498 0.098819174 0.121056736 -0.10393533 0.036772992 -0.14845636 -0.08650653 0.06700475
0.054283246 0.08393665 -0.008030601 -0.059327412 0.041534692 -0.15898897 0.091866754 -0.16287597
0.01417165 -0.1770888 -0.0865845 0.0127870785 0.13691531 -0.08216183 -0.07318525 -0.060801126
00000000: febc d7bc c2ce 463e b917 3abe 5cc8 f7bd
00000010: bb6e babb 657a c3bc a186 7f3d 925c 063e
00000020: 8008 6fbc 69c0 89bc ae48 5a3d 01a7 e0bd
00000030: fcf8 15be 85e8 59bd 4323 273e 295d 3fbd
00000040: 635f 093e 466a ce3d 6141 e4bd fa68 bbbd
00000050: 6e7d afbc 6ced 6c3e 612a 8dbd 56a8 243e
00000060: 6d7f 103d b6f2 41bd 9702 613e 5657 5fbe
00000070: 65f5 d3bd f9f5 afbd b21a d3bd 7dfe 4e3e
00000080: 9e9c 39be 34fd 9abd 94a7 6cbe 3aaa 1dbe
00000090: 008a c4bd d47a ef3d b72f 283e 82fb 433c
000000a0: f0a7 0d3c e6e5 16bd 8d6e d7bc 62a6 b4bd
000000b0: 1eec 22be a330 32bd 55f2 3f3d ff6a 3e3e
000000c0: 4e7f 2bbe 670d 5f3c 190b 263e 32a9 c63e
000000d0: ab52 213d 3299 ad3d deae c43d 4b3e c6bd
000000e0: 8eaa f03b f3dd 50be afb1 cabc a53f 11be
000000f0: 2469 dc3d b292 033e 2635 16be 00be eb3d
00000100: 97b6 ce3d 2a20 66bc 380a 37bd f280 6bba
00000110: 7a0d 2d3e 4fac d33d f4ba 01be cacd 2cbe
00000120: 7852 843d 557b 0b3e 238c 063e 7e6f 843e
00000130: 1542 15be b763 12be 59e5 973d e828 dfbd
00000140: 122e e4bd 643a e63d 9f00 003e 4e22 a2be
00000150: 5a1c 0b3e 1fdc 25be 47c1 7dbd 2c1f 9abd
00000160: 47d3 ef3e e87d 17be ee6d eb3d 8ce8 473d
00000170: b206 f13d 0a2a 04bd b49d 82be 9fab a0bc
00000180: ce46 3b3c 60f0 0c3d ac34 64bd 2e97 1fbe
00000190: 11e7 603e 7548 9f3d 0fce 92bd 292f 26be
000001a0: 5173 53be 5611 3d3d c6b4 31be 8cda 01be
000001b0: 4138 84be 7835 ca3c 67e2 89bd 00f7 a63d
000001c0: 1a34 f6bd cd9b 303e a6bb e63d a410 47be
000001d0: 0212 97bd 3561 72bd 8bfe c83d 1f08 4c39
000001e0: 9289 073e 5d7a 3ebd e125 e9bd 397b e53d
000001f0: aa31 0dbe 99e3 cebd 2a1b a7bd 9b41 973b
00000200: bb6b 02be f764 38be f8a7 16bc 0455 913d
00000210: 4d86 0ebe 807f 4cbd 7556 303e 9b65 a33c
00000220: ad3e 9abd 9179 653d 1f31 f4bc 08c6 1c3e
00000230: f407 3e3e 970e 5b3c 9b30 bd3d 9447 a43d
00000240: 403a 17be 56f6 8dbd de40 e53d 80af 8bba
00000250: e3ed 19be 2201 01be f147 30be 8d15 0ebe
00000260: c3f0 44bd e418 643d 2a07 b63d a932 3bbe
00000270: 4605 d23d f8c3 2fbe 4fa9 96bd aa84 88bd
00000280: f21c 4dbd 8036 04bd 63b3 38be 1935 24be
00000290: 60bd d2bc 6d41 16bd 0df3 98bd 0314 193d
000002a0: 1a85 17be 20c7 35bc 9034 dc3d 3255 89bd
000002b0: 2c26 0d3e d174 283d a5ec 17be 658a 853d
000002c0: 8068 9bbc 05af debd 38d3 093e d709 08be
000002d0: 65d2 41bd fcfb 0cbd 5995 a03d 48f8 3b3d
000002e0: eac7 a13d 47e5 db3c 30ee 21bd 789d 0dbd
000002f0: c9ba 0abe 141c 843d 9b64 cb3d fe5e e63d
00000300: 427e edbd c042 f03b f8b6 15be 8f57 b9bd
00000310: cb30 c4bd 1686 cc3c 32a3 c8bd bf88 e7bc
00000320: 6911 c7bc 9e09 d93d 9382 febd 2624 e7bd
00000330: 8753 f4bd f2a8 eb3d 500e 72bd 0d10 dc3d
00000340: a87f 733d 5846 29ba d9df 04bd 4c1d 05bd
00000350: 00f9 a83c 28c3 19bd 71db f5bc 38d6 ab3c
00000360: 13ae 03be 6f66 f0bd dfef 073e f8af 27be
00000370: 3069 41bc 6f88 263e 6223 793d 333c 2abc
00000380: bfd1 42be d2c9 a63d 0e60 15be 6a61 163d
00000390: f432 a9bd 6181 c4bd 7399 b63c 4eae 913d
000003a0: 74e9 7f3d b561 ca3d 98ec f73d 0cdc d4bd
000003b0: 479f 163d f204 18be 562a b1bd c939 893d
000003c0: 1c58 5e3d fae6 ab3d c892 03bc 4d01 73bd
000003d0: 4820 2a3d 01ce 22be a324 bc3d f5c8 26be
000003e0: 3530 683c c456 35be 3753 b1bd e580 513c
000003f0: 8733 0c3e 7644 a8bd 26e2 95bd 9a0a 79bd

fc1.bias f4 [128]
0.042244 0.093801394 -0.04035833 -0.036430344 -0.055124212 -0.11432511 0.079853795 0.13666221
-0.070893556 0.04030472 -0.06586468 -0.09214745 -0.05249818 -0.022348372 -0.052422933 0.034883015
0.116246715 0.018614234 0.03816438 0.08146817 -0.020641286 0.1405634 0.17303526 0.016857384
0.036929455 0.18090546 0.18879369 -0.14692649 -0.12817815 -0.18536337 0.10069297 0.1776881
-0.025001375 0.05917869 0.0058084563 -0.18641624 0.07264367 0.09114611 0.0033986 0.043445725
0.03233825 0.12906194 0.14709803 0.05285042 0.10046828 -0.0009839538 0.09868131 -0.008261145
-0.07518977 0.11023761 0.05858425 0.057225727 0.06927861 0.045921743 0.10685668 0.054958954
-0.09832385 -0.008189431 0.053391065 -0.009371991 -0.17896053 0.0034769739 0.11857278 -0.03130623
0.13714398 0.02720929 0.10156296 -0.024234492 -0.13448049 -0.03969803 0.05776966 -0.06752135
0.18530817 -0.12076817 -0.07277808 -0.12845181 0.19337569 -0.111708075 0.1508866 0.094770655
-0.0136298705 0.10379611 0.09923597 -0.087957315 0.0022931246 0.21481824 0.13942246 -0.051271014
-0.059383754 0.04429953 0.12339061 0.047694363 -0.07473647 -0.1212551 -0.0019454315 0.10261675
0.024123248 -0.13029943 -0.037365608 0.15638389 -0.13944273 -0.16585225 0.085475266 0.15096314
-0.14750665 -0.124514304 -0.06342431 0.17111158 -0.039597332 -0.017318323 0.13182177 -0.03708459
-0.03279164 -0.15380122 -0.026481027 0.20078851 0.07063506 0.13259614 -0.035356306 0.0006412619
-0.021090055 0.09666001 -0.05607605 -0.17677103 -0.049584594 0.07783286 0.13326581 0.0153234005
00000000: 0b08 2d3d f21a c03d c74e 25bd fc37 15bd
00000010: edc9 61bd 4923 eabd 638a a33d 2ef1 0b3e
00000020: a430 91bd 9016 253d 10e4 86bd cdb7 bcbd
00000030: 5508 57bd ef13 b7bc 6eb9 56bd 7ee1 0e3d
00000040: c212 ee3d e17c 983c 4152 1c3d c9d8 a63d
00000050: ea17 a9bc daef 0f3e 2830 313e 7f18 8a3c
00000060: 5743 173d 483f 393e 2253 413e e673 16be
00000070: 2241 03be e5cf 3dbe 1e38 ce3d dff3 353e
00000080: afcf ccbc 5b65 723d dd54 be3b e6e3 3ebe
00000090: 34c6 943d d0aa ba3d 0cbb 5e3b 25f4 313d
000000a0: 1d75 043d d028 043e dea0 163e af79 583d
000000b0: 50c2 cd3d 03f8 80ba 6d19 ca3d c159 07bc
000000c0: 18fd 99bd 42c4 e13d 0af6 6f3d 8665 6a3d
000000d0: f2e1 8d3d 7018 3c3d add7 da3d a41c 613d
000000e0: 045e c9bd f72c 06bc 97b0 5a3d fb8c 19bc
000000f0: 6e41 37be f1dd 633b 49d6 f23d f63a 00bd
00000100: 796f 0c3e 04e6 de3c 3e00 d03d 6a87 c6bc
00000110: 41b5 09be 679a 22bd e19f 6c3d a248 8abd
00000120: 6dc1 3d3e 4d55 f7bd ad0c 95bd df88 03be
00000130: 4704 463e 34c7 e4bd 0482 1a3e 1e17 c23d
00000140: d24f 5fbc 0e93 d43d 3a3c cb3d f722 b4bd
00000150: 3f48 163b 50f9 5b3e c3c4 0e3e 8e01 52bd
00000160: 613c 73bd 6d73 353d 37b4 fc3d 2a5b 433d
00000170: 6f0f 99bd 9854 f8bd d9fd feba bb28 d23d
00000180: 1e9e c53c 376d 05be ae0c 19bd 1923 203e
00000190: 13ca 0ebe 2cd5 29be a80d af3d 1596 1a3e
000001a0: fc0b 17be 5b01 ffbd 9be4 81bd e037 2f3e
000001b0: d030 22bd 28df 8dbc 49fc 063e 03e6 17bd
000001c0: 8750 06bd 117e 1dbe bdee d8bc 819b 4d3e
000001d0: 1da9 903d 48c7 073e c6d1 10bd 5c1a 283a
000001e0: 0dc5 acbc aff5 c53d 00b0 65bd 7703 35be
000001f0: 3719 4bbd d666 9f3d d576 083e 000f 7b3c

fc2.weight f4 [64, 128]
-0.07695654 -0.06508192 -0.06954453 0.035629652 0.06515359 0.026139498 0.030475847 0.05758328
0.06043292 0.052779533 0.049426742 0.02391699 0.045622803 -0.060649008 -0.057209782 0.02377139
0.01375518 -0.07770414 -0.06439076 -0.07036378 0.07020015 0.05778817 -0.04652324 0.013336115
-0.020329967 0.07683831 -0.0800564 -0.06448285 -0.07358906 0.051440112 -0.044184238 0.052644975
0.029878132 -0.043203562 -0.023810953 -0.035769228 0.038994662 -0.035446573 0.029996268 0.0063144416
-0.0705875 -0.055561967 -0.061286163 0.046315037 0.019152097 -0.0022224337 -0.052630063 -0.08757583
-0.03127943 -0.06764735 -0.08791668 -0.08430129 -0.057734773 -0.08592591 0.027552925 0.033072494
0.0356265 -0.08799014 0.054655768 0.017232507 0.045196347 -0.0217238 0.04244537 -0.08382884
0.030105717 0.07008875 0.037155412 -0.08331599 -0.024812683 -0.010976419 0.046311416 -0.033446338
0.012712605 -0.031028803 -0.01404123 -0.0017594844 -0.050754044 -0.061349772 0.072967865 0.07426382
-0.0026759356 0.076506205 0.06811079 -0.055674184 -0.035121907 -0.060709268 0.028576806 0.002235353
-0.01212132 0.06562542 -0.034548394 -0.04837414 -0.06283316 -0.044965725 0.08519123 -0.042973578
-0.024320342 0.03983789 -0.06788516 -0.05364807 0.06505456 -0.033900734 -0.04586536 -0.0114355385
-0.012594648 0.016153283 0.03240505 -0.0681515 0.08032394 -0.0840355 0.029935792 -0.024939336
-0.037326008 0.08268028 -0.085175715 0.0060365647 0.05663789 0.07901866 -0.07472485 0.010649368
0.08744965 -0.08657895 0.021589026 -0.05538157 0.014348671 -0.07995472 0.043487377 -0.019607998
0.043712046 -0.022837052 -0.027525218 -0.021459207 -0.08093201 -0.037543915 -0.021690533 -0.09704424
0.07922338 -0.06832163 -0.053992458 -0.01182007 -0.071600094 -0.025355598 -0.05849135 -0.07398449
-0.026479129 0.063364334 -0.02191199 0.044564664 -0.034380328 -0.04709361 0.04908763 -0.08245026
-0.10848709 -0.009447422 0.020077584 -0.052835435 0.021409752 -0.056342293 -0.010724455 -0.04732262
-0.047028683 -0.07056703 -0.012410273 -0.023250006 0.047013883 0.0066488837 -0.07228586 -0.073439784
-0.07409988 0.013721084 -0.057067547 -0.040435273 0.001309194 -0.08764392 -0.062019486 0.08014924
-0.04673036 -0.041735757 0.03963125 -0.013474069 0.041514907 -0.07953166 0.034573685 -0.020112569
-0.05662567 -0.05740754 -0.11198452 0.06456041 -0.016960062 -0.069841556 0.047881816 0.039420042
0.010612145 0.07140922 0.050823256 0.071354456 0.07915402 0.04217465 0.0015912062 -0.036222346
-0.016696725 -0.036732223 0.038979635 0.0025606602 0.007218289 -0.056935143 -0.053971853 0.046672717
-0.0059056333 0.020991672 -0.09226058 -0.032527328 -0.022741491 -0.019090282 0.056422256 -0.021906793
0.07376868 -0.038787045 0.025472729 -0.06580657 -0.012411405 -0.086173065 -0.09371836 -0.053947713
0.017869702 0.0068507195 0.0085546225 -0.021770418 0.059401374 0.082117304 0.0075187595 0.07029127
-0.03307319 -0.059290018 0.015108315 0.0581185 -0.030997222 -0.077179566 0.014539127 -0.03281087
-0.066602334 0.055828057 -0.03175839 -0.07996028 -0.067645274 0.0516812 0.057491995 -0.07154998
-0.039775517 -0.024727182 0.04129956 -0.07570131 -0.0051863925 0.0013550019 0.036199417 -0.021711243
00000000: 649b 9dbd ab49 85bd 5d6d 8ebd 66f0 113d
00000010: 3f6f 853d 8022 d63c 7ca8 f93c 72dc 6b3d
00000020: 8288 773d 5a2f 583d b273 4a3d 90ed c33c
00000030: fade 3a3d 186b 78bd ce54 6abd 38bc c23c
00000040: 685d 613c 5923 9fbd 4edf 83bd e31a 90bd
00000050: 19c5 8f3d 4ab3 6c3d 278f 3ebd b87f 5a3c
00000060: 088b a6bc 675d 9d3d 9cf4 a3bd 960f 84bd
00000070: dcb5 96bd deb2 523d 88fa 34bd 42a2 573d
00000080: fcc2 f43c 38f6 30bd 300f c3bc c182 12bd
00000090: deb8 1f3d 6d30 11bd bcba f53c 60e9 ce3b
000000a0: 2e90 90bd f294 63bd 3307 7bbd d6b4 3d3d
000000b0: dce4 9c3c 40a6 11bb 9f92 57bd f55a b3bd
000000c0: dc1e 00bd b28a 8abd a90d b4bd 28a6 acbd
000000d0: 4c7b 6cbd ecf9 afbd acb6 e13c 0677 073d
000000e0: 18ed 113d 2d34 b4bd bade 5f3d 302b 8d3c
000000f0: ce1f 393d 1cf6 b1bc 32db 2d3d 74ae abbd
00000100: 44a0 f63c b18a 8f3d 4630 183d 93a1 aabd
00000110: f843 cbbc 70d6 33bc 0ab1 3d3d 07ff 08bd
00000120: 8848 503c 1e30 febc 300d 66bc 809e e6ba
00000130: 79e3 4fbd e649 7bbd 2d70 953d a117 983d
00000140: c05e 2fbb 49af 9c3d ab7d 8b3d 9d0a 64bd
00000150: fddb 0fbd 48aa 78bd e819 ea3c 007f 123b
00000160: 8098 46bc 9f66 863d 9e82 0dbd f623 46bd
00000170: acae 80bd fb2d 38bd bd78 ae3d 1005 30bd
00000180: 743b c7bc 0e2d 233d 6007 8bbd 14be 5bbd
00000190: 533b 853d 7fdb 0abd 51dd 3bbd 205c 3bbc
000001a0: c859 4ebc e453 843c 28bb 043d 0393 8bbd
000001b0: e180 a43d ce1a acbd e83b f53c 944d ccbc
000001c0: 28e3 18bd 4754 a93d 9b70 aebd 60ce c53b
000001d0: 22fd 673d 89d4 a13d 5809 99bd b07a 2e3c
000001e0: cd18 b33d 4e50 b1bd 78db b03c c9d7 62bd
000001f0: b016 6b3c 4dbf a3bd d21f 323d f4a0 a0bc
00000200: 670b 333d c514 bbbc 917c e1bc 38cb afbc
00000210: afbf a5bd a6c7 19bd 58b0 b1bc 21bf c6bd
00000220: de3f a23d 36ec 8bbd 3227 5dbd f8a8 41bc
00000230: 12a3 92bd 8bb6 cfbc a094 6fbd 2e85 97bd
00000240: c2ea d8bc 29c5 813d c680 b3bc 7089 363d
00000250: 63d2 0cbd 3be5 40bd 1c10 493d afdb a8bd
00000260: 7b2e debd 5cc9 1abc bf79 a43c f869 58bd
00000270: 8163 af3c 2dc7 66bd a0b5 2fbc 5dd5 41bd
00000280: 26a1 40bd 7285 90bd 7554 4bbc cc76 bebc
00000290: a191 403d e1de d93b 9c0a 94bd 9967 96bd
000002a0: aec1 97bd 66ce 603c a9bf 69bd 759f 25bd
000002b0: 4399 ab3a a87e b3bd 2508 7ebd 4925 a43d
000002c0: 5568 3fbd 1df3 2abd 6154 223d 57c2 5cbc
000002d0: 890b 2a3d 7fe1 a2bd 239d 0d3d 1dc3 a4bc
000002e0: 52f0 67bd 2b24 6bbd 2458 e5bd 4038 843d
000002f0: d4ef 8abc 1709 8fbd b91f 443d e976 213d
00000300: 90de 2d3c ff3e 923d 0c2c 503d 4922 923d
00000310: 811b a23d 53bf 2c3d 0590 d03a e25d 14bd
00000320: 92c7 88bc 8774 16bd 1ca9 1f3d c0d0 273b
00000330: 6687 ec3b d334 69bd 9711 5dbd e42b 3f3d
00000340: 0b84 c1bb baf6 ab3c 1df3 bcbd 603b 05bd
00000350: 5d4c babc 3963 9cbc 061b 673d e075 b3bc
00000360: 0914 973d 2adf 1ebd 2fac d03c 98c5 86bd
00000370: 3559 4bbc 817b b0bd 69ef bfbd 47f8 5cbd
00000380: 7b63 923c 007c e03b b028 0c3c e057 b2bc
00000390: db4e 733d 1e2d a83d ed5f f63b dff4 8f3d
000003a0: c177 07bd 17da 72bd de88 773c aa0d 6e3d
000003b0: e3ed fdbc 5210 9ebd 8535 6e3c b164 06bd
000003c0: ce66 88bd f6ab 643d 1615 02bd 37c2 a3bd
000003d0: 9b89 8abd aaaf 533d ba7c 6b3d cc88 92bd
000003e0: a7eb 22bd a990 cabc ba29 293d 4a09 9bbd
000003f0: 9df2 a9bb 529a b13a d745 143d c7db b1bc

fc2.bias f4 [64]
-0.042918283 -0.07930875 -0.004016121 -0.053179815 0.015573787 -0.04537556 -0.005608875 0.054227885
-0.055636607 -0.040445566 -0.00322865 -0.04241261 -0.0627875 -0.08545632 -0.093011 0.025616813
0.017440742 -0.0010498688 -0.08505396 -0.05485969 -0.02050121 0.029891841 -0.006971925 0.012897805
0.016845169 0.0654399 0.08579869 -0.016388178 -0.036946964 0.008901327 0.050755568 0.020712228
-0.079705454 0.06461243 0.062877424 -0.060334127 0.021831399 -0.0059398687 0.043966785 -0.012799092
0.012058852 0.07542313 0.030421464 -0.046803564 0.09118984 0.067809716 -0.04946114 -0.09013436
-0.007372154 -0.06936677 -0.034362175 -0.08513011 -0.060338516 0.01223893 -0.014799746 -0.011813067
-0.008578497 0.056356322 0.09942491 0.027556345 -0.0156741 -0.09240538 -0.09942996 -0.027400818
00000000: 15cb 2fbd a06c a2bd aa99 83bb 14d3 59bd
00000010: 3229 7f3c b9db 39bd a7ca b7bb 0f1e 5e3d
00000020: 36e3 63bd 40aa 25bd c297 53bb d8b8 2dbd
00000030: bc96 80bd b903 afbd 8d7c bebd 5ada d13c
00000040: e3df 8e3c c09b 89ba c530 aebd 8eb4 60bd
00000050: 27f2 a7bc bcdf f43c bf74 e4bb 5151 533c
00000060: e1fe 893c 5b05 863d 39b7 af3d 8040 86bc
00000070: b355 17bd dfd6 113c 12e5 4f3d b1ac a93c
00000080: 9d3c a3bd 8653 843d e1c5 803d eb20 77bd
00000090: c3d7 b23c 3ba3 c2bb 8416 343d 48b3 51bc
000000a0: 7e92 453c 7177 9a3d 6f36 f93c 18b5 3fbd
000000b0: bdc1 ba3d d2df 8a3d c497 4abd 5d98 b8bd
000000c0: 1c92 f1bb 2a10 8ebd 5abf 0cbd b258 aebd
000000d0: 8525 77bd cb85 483c a27a 72bc 988b 41bc
000000e0: d38c 0cbc e3d5 663d 4a9f cb3d d8bd e13c
000000f0: f866 80bc 083f bdbd efa1 cbbd ae77 e0bc

fc3.weight f4 [4, 64]
0.06620386 0.063024424 0.04643162 0.06736441 -0.0019008283 -0.073882334 -0.061000958 -0.018173255
0.01982534 -0.2453876 0.085077435 0.2648827 -0.043092176 0.09367767 0.05217016 -0.09709327
-0.041209925 -0.23377466 0.017712027 0.06257333 -0.07056673 0.09416838 0.11533839 -0.005429934
-0.25329846 -0.08703058 0.1994066 -0.0034685805 0.019270103 -0.18983881 -0.06137007 -0.027061222
0.08341317 -0.10423293 0.015318636 -0.061455663 -0.18591829 0.054306783 -0.15386496 0.11064394
0.077983856 -0.09230858 -0.2165183 0.0698717 0.08362854 -0.15826772 0.091093965 -0.027375638
0.23833251 -0.0104282955 -0.0580331 -0.019683432 -0.007916427 0.087737374 0.098814294 0.10559375
-0.09956648 0.15109007 0.1628157 0.1478101 -0.044515524 0.05030322 0.04254144 0.10835505
0.011251822 0.10561433 -0.032502495 -0.036907807 0.03579311 0.017172001 -0.1616073 -0.0037501524
0.0045633386 -0.033049718 -0.033000633 0.23474522 0.09850872 0.07344763 0.03709073 -0.22433634
-0.047781717 -0.19017972 0.12169172 0.038921643 -0.09648114 -0.11100559 -0.0931318 -0.06359962
-0.20340852 -0.05705104 0.26146942 -0.021336587 0.08571949 -0.13945407 -0.10098347 -0.07824731
-0.04349734 -0.16976894 -0.1592156 0.0043563843 -0.2265598 -0.020834545 -0.114000656 -0.072179735
-0.042477284 -0.2016893 -0.14849833 0.07480623 0.18556552 -0.1226877 0.02274853 0.100928135
0.17818856 -0.06433423 0.017286502 -0.02118724 -0.03642041 0.07730096 0.09419802 0.09326605
0.11142259 0.11539307 0.16425134 0.09543344 0.066944234 0.03460776 0.049166486 0.17487356
0.04888065 -0.045200318 0.002031496 0.109980695 0.06289008 0.070326604 -0.16359359 0.09273448
0.0192817 -0.21826594 -0.0017447696 0.26466882 -0.08255525 -0.028639123 0.05873325 -0.18036439
-0.027710533 -0.18177654 0.040961683 -0.006067999 0.004421184 0.03212799 0.08594984 0.011696261
-0.11003971 0.026782487 0.21528025 0.09715984 -0.058987077 -0.16218366 0.082658716 -0.05298049
0.00806919 -0.08612871 -0.08872628 -0.043618083 -0.12682447 0.082380116 -0.08108068 0.07028791
0.102204144 -0.22266415 -0.20878868 -0.06471431 0.1272555 -0.18635148 -0.049439292 -0.08603223
0.13426493 0.0727876 0.034593195 0.116210826 -0.09333602 0.06405252 -0.062194206 0.1601253
-0.0113288285 0.19760957 0.18762188 -0.011038203 -0.013416441 -0.033943072 -0.014351202 0.09475257
-0.029048711 -0.035432313 0.06457713 0.09876107 0.02250571 0.008071703 -0.19319025 -0.09151261
-0.07409735 -0.23993246 -0.10140877 0.29909083 -0.08862317 0.05990173 0.090263836 -0.121188365
0.03820921 -0.06316829 -0.11335331 0.11845753 0.11801836 0.10514526 0.01705801 0.0466397
-0.16907243 0.03243457 0.23953609 0.026188716 0.055540964 -0.14042981 -0.05865421 -0.011636521
-0.07746844 -0.07220469 -0.072126396 -0.035208687 -0.24664314 -0.06160026 -0.0536525 0.01883915
0.10341667 -0.2127746 -0.16030586 -0.12731472 0.19717014 -0.23663513 -0.018884234 -0.027912838
0.084978655 0.08627495 0.06670097 0.068897806 0.018147012 -0.026451645 0.07017908 0.1815586
-0.018516766 0.10463124 0.10613331 -0.04383638 -0.005141673 -0.024959235 -0.106900655 0.20718984
00000000: e495 873d f312 813d 152f 3e3d 5af6 893d
00000010: 3725 f9ba 9f4f 97bd 24dc 79bd 14e0 94bc
00000020: c068 a23c e346 7bbe 143d ae3d b59e 873e
00000030: 6c81 30bd 14da bf3d 61b0 553d d6d8 c6bd
00000040: bdcb 28bd a062 6fbe d018 913c 7226 803d
00000050: 4a85 90bd 5adb c03d 8936 ec3d 96ed b1bb
00000060: 56b0 81be 173d b2bd 3e31 4c3e 2051 63bb
00000070: 56dc 9d3c 1b65 42be 2f5f 7bbd 7faf ddbc
00000080: 86d4 aa3d 1378 d5bd 04fb 7a3c efb8 7bbd
00000090: 5d61 3ebe ca70 5e3d c78e 1dbe 4a99 e23d
000000a0: 00b6 9f3d 480c bdbd f9b6 5dbe e518 8f3d
000000b0: 7145 ab3d ef10 22be 798f ba3d e042 e0bc
000000c0: 700d 743e 71db 2abc 1eb4 6dbd 263f a1bc
000000d0: e7b3 01bc a7af b33d 265f ca3d 8941 d83d
000000e0: 83e9 cbbd 5bb7 1a3e 29b9 263e 885b 173e
000000f0: e955 36bd c00a 4e3d ef3f 2e3d 41e9 dd3d
00000100: 9059 383c 534c d83d 5621 05bd a42c 17bd
00000110: cc9b 123d 4cac 8c3c 627c 25be 1ec5 75bb
00000120: 0f88 953b 245f 07bd ac2b 07bd 0d61 703e
00000130: f1be c93d b66b 963d 73ec 173d 6db8 65be
00000140: c3b6 43bd 79be 42be 8239 f93d 4d6c 1f3d
00000150: e797 c5bd e656 e3bd e3bb bebd 8440 82bd
00000160: 534a 50be 5aae 69bd 52df 853e 11ca aebc
00000170: b38d af3d 0ccd 0ebe 6cd0 cebd 2040 a0bd
00000180: 442a 32bd e9d7 2dbe 6a09 23be 00c0 8e3b
00000190: 4bff 67be 35ad aabc 2d79 e9bd f8d2 93bd
000001a0: a9fc 2dbd a487 4ebe f20f 18be 0234 993d
000001b0: e304 3e3e b043 fbbd 205b ba3c 69b3 ce3d
000001c0: 1077 363e aac1 83bd 6c9c 8d3c dd90 adbc
000001d0: 912d 15bd f74f 9e3d e4ea c03d 4502 bf3d
000001e0: 8731 e43d 3453 ec3d 8131 283e 9b72 c33d
000001f0: 0f1a 893d dec0 0d3d cc62 493d 0e12 333e
00000200: 1437 483d f823 39bd d922 053b 8f3d e13d
00000210: 84cc 803d 6507 903d 1485 27be 93eb bd3d
00000220: a8f4 9d3c 1b81 5fbe c1b0 e4ba ac82 873e
00000230: ba12 a9bd 989c eabc 4792 703d 71b1 38be
00000240: 3301 e3bc a123 3abe 70c7 273d 11d6 c6bb
00000250: 94df 903b a498 033d 7806 b03d ada1 3f3c
00000260: 805c e1bd f266 db3c 6d72 5c3e bdfb c63d
00000270: 6f9c 71bd 7913 26be f948 a93d 1202 59bd
00000280: a334 043c 4064 b0bd 20b6 b5bd e0a8 32bd
00000290: 46de 01be e8b6 a83d a10d a6bd 1cf3 8f3d
000002a0: 6850 d13d 1202 64be b3cc 55be f088 84bd
000002b0: 444f 023e ecd2 3ebe db80 4abd aa31 b0bd
000002c0: bf7c 093e aa11 953d 98b1 0d3d f1ff ed3d
000002d0: f526 bfbd f82d 833d 5abf 7ebd e3f7 233e
000002e0: 8d9c 39bc 2a5a 4a3e f31f 403e 94d9 34bc
000002f0: a2d0 5bbc e407 0bbd 4e21 6bbc a30d c23d
00000300: 90f7 edbc 7921 11bd 0441 843d 3e43 ca3d
00000310: e55d b83c 2d3f 043c aad3 45be f76a bbbd
00000320: 5ac0 97bd dbb0 75be 67af cfbd 6f22 993e
00000330: 1180 b5bd 845b 753d 3fdc b83d 9b31 f8bd
00000340: 4381 1c3d 605e 81bd c825 e8bd dd99 f23d
00000350: 9cb3 f13d 6656 d73d 3dbd 8b3c 4509 3f3d
00000360: 5321 2dbe 1dda 043d f348 753e b889 d63c
00000370: ec7e 633d d5cc 0fbe 663f 70bd 1ba7 3ebc
00000380: c6a7 9ebd 0de0 93bd 01b7 93bd fc36 10bd
00000390: 0590 7cbe 8e50 7cbd b9c2 5bbd 9054 9a3c
000003a0: 1ecc d33d 96e1 59be 3827 24be ca5e 02be
000003b0: f8e6 493e 7b50 72be 1cb3 9abc 77a9 e4bc
000003c0: 4a09 ae3d ecb0 b03d 859a 883d 4b1a 8d3d
000003d0: 0ba9 943c 1fb1 d8bc 0dba 8f3d 7fea 393e
000003e0: 79b0 97bc e748 d63d 6c5c d93d c78d 33bd
000003f0: 7b7b a8bb 4f77 ccbc bbee dabd 9329 543e

fc3.bias f4 [4]
-0.08752139 -0.031725176 0.022729404 0.015133737
00000000: 6a3e b3bd 42f2 01bd 0433 ba3c 7ef3 773c
