model.pt (torch_old, 54575 bytes, 6 tensors)

fc1.weight f4 [128, 37]
0	0xbcccf0c0	-0.025017142
1	0x3e7d09cc	0.24710768
2	0xbea56f41	-0.32311442
3	0xbdb98f37	-0.09060519
4	0xbdbdb487	-0.092629485
5	0xbe392e7f	-0.18084143
6	0x3bf063d9	0.0073361215
7	0x3e8c0f95	0.27355638
8	0xbdbb539a	-0.09146805
9	0xbd4d7bc0	-0.050166845
10	0xbdae81ae	-0.08520828
11	0x3d8fd3dc	0.07022831
12	0xbf232d6d	-0.6374119
13	0xbea62dac	-0.3245672
14	0xbe2a7e09	-0.16649641
15	0x3e96dfe1	0.2946768
16	0x3e241a1d	0.16025586
17	0xbe6fdd7b	-0.23424332
18	0xbedae06b	-0.42749342
19	0x3c978a94	0.018498696
20	0x3bf37e03	0.0074307933
21	0x3e58af8f	0.2116072
22	0xbf350bb3	-0.70720977
23	0x3eb254bd	0.34830275
24	0x3e18e2b9	0.14930238
25	0x3cee0eaf	0.029059736
26	0x3df2a5bb	0.11848017
27	0xbe9d241c	-0.30691612
28	0x3e6c51cc	0.23078078
29	0xbd03205c	-0.032013282
30	0xbd91afbe	-0.07113598
31	0x3e42aebd	0.1901197
32	0xbd904e70	-0.07046211
33	0xbd9afd34	-0.07567826
34	0xbdb6382a	-0.08897431
35	0xbe1daa3a	-0.15396968
36	0xbdc48a00	-0.09596634
37	0x3e87c810	0.26519823
38	0xbe705d88	-0.2347318
39	0x3e1599c4	0.14609438
40	0xbd2861ec	-0.04110901
41	0xbe85da9f	-0.26143357
42	0x3d3a0952	0.045419045
43	0x3d56dae3	0.05245484
44	0xbe8ce305	-0.27516952
45	0xbdde3b19	-0.10851116
46	0x3db0a5c7	0.086253695
47	0x3dd8eebd	0.10592411
48	0x3d8af91c	0.06785795
49	0xbe02367c	-0.12716097
50	0x3cac7288	0.021050707
51	0xbe28599a	-0.1644043
52	0x3d467438	0.04845068
53	0x3cf77fa0	0.030212224
54	0x3e43cfc2	0.19122222
55	0xbe15ee4f	-0.14641689
56	0xbbe69463	-0.007036732
57	0xbf019ed1	-0.5063296
58	0x3cf7fe23	0.030272549
59	0xbbbf0917	-0.005829941
60	0x3df46b23	0.11934497
61	0x3d380924	0.044930592
62	0xbe8bc3de	-0.27297872
63	0xbd7233b1	-0.059131328
64	0x3e584945	0.211217
65	0x3e5e441f	0.21705674
66	0xbe4e10a9	-0.20123543
67	0xbc3f2b71	-0.011668072
68	0x3d871df7	0.06597512
69	0x3e98612b	0.29761633
70	0xbe2ba8dd	-0.16763635
71	0xbdaf71b8	-0.08566612
72	0x3d845278	0.06461042
73	0x3e0b7b55	0.13621266
74	0x3e8e0287	0.27736303
75	0x3e864a36	0.26228493
76	0x3b87cc47	0.004144225
77	0xbec5b904	-0.38617718
78	0x3e06b920	0.13156557
79	0xbea22be4	-0.3167411
80	0xbd91b909	-0.07115371
81	0x3e82f94b	0.2558082
82	0x3e99be7a	0.30028135
83	0xbe7a4ebf	-0.24444102
84	0x3e8e5189	0.2779658
85	0xbe5ab8bb	-0.21359532
86	0xbcb96c37	-0.022634609
87	0xbd6b62d9	-0.057467315
88	0x3d8f55df	0.069988005
89	0x3d3cb802	0.04607392
90	0x3d3996de	0.045309894
91	0x3e85f859	0.26166037
92	0xbd5733f8	-0.052539796
93	0x3e29b84e	0.16574213
94	0xbd5e78de	-0.054314487
95	0xbdc7b075	-0.097504534
96	0x3e3dc3c5	0.18531711
97	0xbd1634f9	-0.036671612
98	0xbe4755ff	-0.19466399
99	0xbe2e23be	-0.17005822
100	0x3eadf91c	0.33979118
101	0x3e682b92	0.22672871
102	0xbe26ab17	-0.16276203
103	0x3ca83f3f	0.02053797
104	0xbdbcdced	-0.09221826
105	0x3dfc93a7	0.1233285
106	0xbcce431d	-0.025178486
107	0xbd4fb482	-0.050709255
108	0xbd16c5ef	-0.036809858
109	0x3cca3578	0.024683699
110	0xbd89e267	-0.06732636
111	0x3dbf1fa3	0.09332206
112	0xbf2f888b	-0.68567723
113	0x3ecf59d7	0.4049823
114	0xbeb639e9	-0.35591057
115	0x3d262495	0.04056223
116	0xbe0cd30d	-0.13752384
117	0x3e4c1996	0.19931635
118	0x3cc5dadf	0.024152217
119	0x3e04035a	0.12891904
120	0x3df91861	0.12162853
121	0x3d5734f1	0.052540723
122	0x3dcf560b	0.10123833
123	0xbd90a40a	-0.07062538
124	0xbe5bab46	-0.21452054
125	0xbe807881	-0.25091937
126	0x3e1a61ce	0.15076372
127	0xbc983c8d	-0.01858356
128	0xbe61c899	-0.22049178
129	0xbe444b87	-0.19169436
130	0x3d94c3a2	0.072638765
131	0xbc348ebc	-0.011020359
132	0xbd696cb0	-0.056988418
133	0x3d48bb6e	0.049006872
134	0x3e61d073	0.22052173
135	0x3de013fa	0.1094131
136	0xbdbabdec	-0.09118256
137	0x3c2beba2	0.010493191
138	0x3e1be6ae	0.15224716
139	0x3dcb59e1	0.099292524
140	0x3de04e7e	0.10952471
141	0x3e3f5c24	0.18687493
142	0x3e75acc1	0.23991682
143	0xbe2a72c0	-0.16645336
144	0xbe96f436	-0.29483193
145	0x3d5a0479	0.05322692
146	0x3de540de	0.11194013
147	0xba8baf80	-0.0010657161
148	0x3d82e086	0.06390481
149	0xbdff1d98	-0.124568164
150	0xbedce7f2	-0.4314571
151	0xbd98f5e5	-0.07468776
152	0xbe708865	-0.2348953
153	0x3e54db14	0.20786697
154	0x3de23bbf	0.11046552
155	0xbef7bcfd	-0.48386374
156	0xbc4ef210	-0.012630954
157	0xbcad8a94	-0.021184243
158	0xbe4c3cfb	-0.19945137
159	0x3e72dbf7	0.23716722
160	0xbe483cc5	-0.19554432
161	0xbd35ff34	-0.044432834
162	0xbe20b81f	-0.15695237
163	0xbe495015	-0.19659455
164	0xbd419b94	-0.04726751
165	0x3db478b5	0.088120855
166	0xbe65b370	-0.22431731
167	0xbcdb2de0	-0.026755273
168	0xbec2937b	-0.38003144
169	0x3e53840a	0.20655838
170	0xbd59ac86	-0.053143047
171	0x3bb5b1dd	0.0055448846
172	0x3e223fc3	0.15844636
173	0x3e13cad6	0.14432845
174	0xbe3b6e45	-0.18303783
175	0x3d430d3f	0.047620054
176	0xbd401efb	-0.046904545
177	0xbe301f0f	-0.17199348
178	0x3d429530	0.047505558
179	0xbe993143	-0.29920396
180	0x3e879c5e	0.26486486
181	0xbd0cfbfc	-0.03442
182	0x3e55ed27	0.20891248
183	0x3d3bf848	0.045891076
184	0x3da1c7ea	0.07899459
185	0x3e2ec3e9	0.17066921
186	0xbca5a13e	-0.020218488
187	0xbe9cfd3b	-0.3066195
188	0xbe0abac9	-0.13547815
189	0x3e579708	0.21053708
190	0x3e10f3ba	0.14155474
191	0x3da240e6	0.07922535
192	0xbeba1be5	-0.36349407
193	0x3eb4cf16	0.35314244
194	0xbe7c472c	-0.24636525
195	0xbdc9ff42	-0.0986314
196	0xbe8d65a3	-0.27616605
197	0x3e29a6b0	0.16567492
198	0xbdd3d184	-0.10342696
199	0xbd23157e	-0.03981542
200	0x3ded87cf	0.11598169
201	0x3e167e50	0.14696622
202	0xbed386ec	-0.41313875
203	0xbe67d2d5	-0.2263902
204	0xbc529ca2	-0.012854727
205	0x3e67779a	0.22604218
206	0xbe7ee83c	-0.24893278
207	0xbd98153f	-0.07425927
208	0x3d2b8a5a	0.04187999
209	0xbc9c7088	-0.019096628
210	0x3d2f3f86	0.04278519
211	0xbdfc996b	-0.1233395
212	0x3cddac5b	0.027059725
213	0x3eab4a9a	0.33455354
214	0xbe25345b	-0.16133253
215	0x3dd8afc5	0.105804004
216	0x3d2a2cc7	0.04154661
217	0xbec193e2	-0.37808138
218	0x3e52b913	0.20578413
219	0xbe348b80	-0.1763134
220	0xbc416930	-0.011804864
221	0x3e26886f	0.16262983
222	0x3e32309f	0.1740136
223	0x3d59ddb6	0.053189956
224	0xbeec9db6	-0.46214074
225	0x3d8feecc	0.07027969
226	0xbe830434	-0.25589144
227	0x3e1431a7	0.14472066
228	0xbe4b9a68	-0.1988312
229	0xbe6d9583	-0.23201565
230	0xbe61e407	-0.22059642
231	0x3e4c50dd	0.19952722
232	0xbe3828f7	-0.17984377
233	0x3e9ae571	0.30253175
234	0x3d9c9303	0.07645228
235	0xbc8004d9	-0.015627312
236	0xbdedc41e	-0.11609672
237	0xbdfa8cc7	-0.122338824
238	0xbe212535	-0.1573685
239	0x3dc2aa13	0.09505095
240	0x3b95bef4	0.0045698825
241	0xbcd1f066	-0.025627326
242	0xbdffd8db	-0.12492534
243	0x3e296f48	0.16546357
244	0xbdf3745e	-0.1188743
245	0xbe9b2a7f	-0.3030586
246	0x3dd4cc33	0.103905104
247	0xbd47a66f	-0.048742708
248	0xbe6ea148	-0.23303711
249	0xbe193680	-0.14962196
250	0x3cd58c48	0.026067868
251	0xbdf6a628	-0.120434105
252	0x3e21f433	0.15815811
253	0xbe407174	-0.18793279
254	0x3d13a3b4	0.03604479
255	0xbdd5bee6	-0.104368016

fc1.bias f4 [128]
0	0x3ca282db	0.019837787
1	0x3d9af791	0.07566751
2	0x3d46a42a	0.048496403
3	0x3c6d041f	0.014466315
4	0x3c65513a	0.013996417
5	0xbd783f23	-0.060607087
6	0x3dcae58b	0.09907063
7	0x3dc656e6	0.09684543
8	0xbdf4107d	-0.119172074
9	0x3e1d26ee	0.15346882
10	0x3d96dc67	0.07366257
11	0xbe2991c4	-0.16559511
12	0x3c86068a	0.01636054
13	0xbd931e26	-0.07183485
14	0xbd777151	-0.0604108
15	0x3d881e76	0.06646435
16	0x3dd69911	0.10478414
17	0xbd917d7d	-0.07104013
18	0x3c46be54	0.012130339
19	0xbc749789	-0.014928707
20	0xbdb2c159	-0.087282844
21	0x3d7e74e5	0.062123198
22	0x3e923e66	0.2856323
23	0x3cbe1281	0.023202183
24	0x3e11b3bb	0.14228718
25	0x3df40987	0.1191588
26	0x3eb2517e	0.348278
27	0xbd8b5501	-0.068033226
28	0xbd11cec7	-0.03559759
29	0xbe6a422c	-0.22876805
30	0x3d8defa7	0.06930476
31	0x3de7cd9f	0.11318516
32	0x3ca49859	0.020092176
33	0x3dd11e32	0.102108374
34	0x3e0f8dd0	0.14018941
35	0xbe3edb23	-0.18638282
36	0x3e3da5b9	0.1852025
37	0x3d5334eb	0.05156414
38	0x3d00e7b4	0.03147097
39	0x3c1a5d82	0.009421708
40	0x3b3dfd92	0.002899025
41	0x3e0a3188	0.13495457
42	0x3e4cca7d	0.19999118
43	0x3d119ff0	0.03555292
44	0x3da5d8fd	0.08098028
45	0xbcbad9ed	-0.022808993
46	0x3d8a8bb5	0.06764928
47	0xbdf34fbc	-0.118804425
48	0xbe0d6c00	-0.1381073
49	0x3d669d9f	0.056302663
50	0x3dcbae09	0.09945304
51	0x3d25e0bc	0.040497527
52	0x3df5dede	0.12005399
53	0x3dab605c	0.083679885
54	0x3dd130f9	0.10214419
55	0x3e635abc	0.22202581
56	0xbdc293c0	-0.09500837
57	0xbce07c27	-0.02740295
58	0x3cb159f4	0.021649338
59	0xbc13d983	-0.009024027
60	0xbdb262ec	-0.08710274
61	0x3d1826a8	0.03714624
62	0x3dd41169	0.10354883
63	0xbcf0a11f	-0.029373704
64	0x3e2ae0b5	0.16687281
65	0x3d8354d3	0.06412663
66	0x3dea2ac7	0.114339404
67	0xbc9c4c3b	-0.019079318
68	0xbe09b541	-0.13448049
69	0x3c562c9a	0.013072157
70	0xbd9bb03c	-0.076019734
71	0x3cfa1827	0.030529095
72	0x3e80fba8	0.25191998
73	0xbdf7555a	-0.120768264
74	0xbdfca925	-0.12336949
75	0xbd000fca	-0.031265058
76	0x3e11229f	0.14173363
77	0xbdb79c0f	-0.08965313
78	0x3df0a054	0.1174933
79	0x3d5b56ad	0.053549457
80	0x3bab44cb	0.0052267066
81	0x3dd8176a	0.10551341
82	0x3d646ce0	0.055767894
83	0xbd517883	-0.05114032
84	0xbd78382e	-0.060600452
85	0x3e7a1a52	0.24424103
86	0x3dec39dd	0.11534474
87	0xbde21143	-0.11038449
88	0x3cbbb9cd	0.022915745
89	0x3e2e2dfa	0.17009726
90	0x3e0fcd6f	0.1404321
91	0x3c36642b	0.01113228
92	0xbd79bfbe	-0.060973875
93	0xbdf85498	-0.1212551
94	0x3c72631c	0.014794137
95	0x3de7cdb4	0.11318532
96	0xbd13b463	-0.036060702
97	0xbd8cc301	-0.068731315
98	0xbca56f31	-0.020194622
99	0x3e6afc25	0.22947748
100	0xbc95fc20	-0.0183087
101	0xbdfc36d7	-0.12315147
102	0x3e081629	0.13289703
103	0x3d7e142d	0.06203096
104	0xbd8fb07c	-0.070160836
105	0xbe10d3c7	-0.14143287
106	0xbd1757e7	-0.036949065
107	0x3e2a6859	0.16641368
108	0xbd2d9347	-0.042376783
109	0xbd7b919f	-0.061418172
110	0x3dd1677a	0.10224815
111	0x3d3e1b41	0.04641271
112	0xbd45b0c2	-0.048264273
113	0xbd47f463	-0.04881705
114	0x3d100214	0.03515823
115	0x3d863815	0.065536655
116	0x3d310159	0.043214176
117	0x3e0e5dda	0.13902989
118	0x3dd4d766	0.103926465
119	0x3d1ee12c	0.03878896
120	0xbd2596ef	-0.040427145
121	0x3e4ba1c0	0.19885921
122	0xbdcc275d	-0.099684455
123	0xbe26d188	-0.16290867
124	0xbca348d5	-0.01993219
125	0x3e61b708	0.22042477
126	0x3ddc48d5	0.10756079
127	0xbdde69b7	-0.10860007

fc2.weight f4 [64, 128]
0	0xbdba434c	-0.09094867
1	0xbd8549ab	-0.06508192
2	0xbdac1ac2	-0.08403541
3	0x3cacd1e0	0.02109617
4	0x3d856f3f	0.06515359
5	0x3cd62280	0.026139498
6	0x3c87261c	0.016497664
7	0x3d6bdc72	0.05758328
8	0x3d4697a9	0.04848448
9	0x3cc4eb1b	0.024037888
10	0x3ca899dc	0.020581178
11	0x3cc3ed90	0.02391699
12	0x3d01eac3	0.031718027
13	0xbd786b18	-0.060649008
14	0xbd8cc559	-0.068735786
15	0x3c6ac2e9	0.014328697
16	0xbb8b4e4c	-0.004251277
17	0xbd9f2359	-0.07770414
18	0xbda06610	-0.07831967
19	0xbdac9494	-0.084267765
20	0x3d8fc519	0.07020015
21	0x3d336b7a	0.04380367
22	0xbd959f9e	-0.07305835
23	0x3c5a7fb8	0.013336115
24	0xbd3611e4	-0.044450656
25	0x3d9d5d67	0.07683831
26	0xbdbd44dc	-0.092416495
27	0xbda0a48d	-0.078438856
28	0xbd96b5dc	-0.07358906
29	0x3d52b2de	0.051440112
30	0xbd34fa88	-0.044184238
31	0x3d1e6c56	0.038677536
32	0x3c82cb79	0.015966164
33	0xbd8b756c	-0.06809506
34	0xbd500f2f	-0.05079573
35	0xbd1282c1	-0.035769228
36	0x3c2a2eef	0.010387166
37	0xbd4a7229	-0.049425278
38	0x3cf5babc	0.029996268
39	0x3bcee960	0.0063144416
40	0xbdad1585	-0.0845137
41	0xbd9a04f4	-0.07520476
42	0xbd7b0733	-0.061286163
43	0x3d03b785	0.03215744
44	0x3ba9ea5f	0.00518541
45	0xbcd9f3a9	-0.026605444
46	0xbda63115	-0.081148304
47	0xbdb35af5	-0.08757583
48	0xbd001edc	-0.03127943
49	0xbda292f1	-0.07938183
50	0xbdeb4150	-0.11487067
51	0xbdaca628	-0.08430129
52	0xbd6c7b4c	-0.057734773
53	0xbdb9f75a	-0.09080382
54	0x3ba478b8	0.0050192736
55	0x3b92b9d3	0.0044777184
56	0x3d11ed18	0.0356265
57	0xbdd0ced6	-0.10195701
58	0x3d35a7ce	0.044349484
59	0x3b378ba2	0.0028006812
60	0x3d391fce	0.045196347
61	0xbcda6a29	-0.02666195
62	0x3ce303cb	0.02771177
63	0xbdc853a3	-0.097815774
64	0x3c84b6fb	0.016200533
65	0x3d62bbfa	0.05535505
66	0x3d183046	0.037155412
67	0xbdaaa193	-0.08331599
68	0xbccb43f8	-0.024812683
69	0xbc33d670	-0.010976419
70	0x3ccd0bda	0.025030065
71	0xbd08ff07	-0.033446338
72	0xbc80c0ad	-0.015716875
73	0xbcfe301e	-0.031028803
74	0xbce57e24	-0.02801425
75	0xbc800d40	-0.015631318
76	0xbd8499b2	-0.064746276
77	0xbd97f75c	-0.07420227
78	0x3d33cc01	0.043895725
79	0x3d76e339	0.06027529
80	0xbc888196	-0.016663354
81	0x3d44e082	0.04806567
82	0x3d5db0c2	0.054123648
83	0xbd8e7ea7	-0.06957751
84	0xbd805731	-0.062666304
85	0xbdb548a6	-0.08851747
86	0x3c9aaee3	0.01888222
87	0x3b127f00	0.002235353
88	0xbc469880	-0.01212132
89	0x3d1a8ade	0.03773009
90	0xbd4687d8	-0.048469394
91	0xbd792535	-0.0608265
92	0xbdb8bbde	-0.09020208
93	0xbd382dfb	-0.044965725
94	0x3d91e69a	0.07124062
95	0xbd300510	-0.042973578
96	0xbd1ce6cc	-0.038306043
97	0x3d232d0e	0.03983789
98	0xbd8b0760	-0.06788516
99	0xbd5bbe14	-0.05364807
100	0x3d15b520	0.036549687
101	0xbd442c0a	-0.04789356
102	0xbd752317	-0.059847917
103	0xbc3b5c20	-0.0114355385
104	0xbcd2aace	-0.025716212
105	0x3c8453e4	0.016153283
106	0x3c98b15d	0.01863926
107	0xbdc55952	-0.09636177
108	0x3d590842	0.05298639
109	0xbdc88f40	-0.09792948
110	0x3a95d65e	0.0011431684
111	0xbd1da0ec	-0.038483545
112	0xbd521343	-0.0512879
113	0x3d9004b1	0.07032145
114	0xbdcb0226	-0.09912519
115	0x3bc5ce60	0.0060365647
116	0x3d2eb8aa	0.042656578
117	0x3d852e84	0.06503013
118	0xbdb57fa1	-0.08862234
119	0x3c2e7ab0	0.010649368
120	0x3d967995	0.07347409
121	0xbdebdf11	-0.11517156
122	0x3cb0db78	0.021589026
123	0xbd62d7c9	-0.05538157
124	0x39c3dbc2	0.0003735703
125	0xbdc04ca2	-0.093896165
126	0x3d321fd2	0.043487377
127	0xbca0a0f4	-0.019607998
128	0x3e854215	0.2602698
129	0xbdfef9f8	-0.124500215
130	0xbe8025d3	-0.25028858
131	0xbe9ef7ba	-0.31048375
132	0xbdda538e	-0.10660468
133	0xbe9d17d7	-0.3068225
134	0x3cecb652	0.02889553
135	0x3cf6865c	0.030093364
136	0x3dc691c2	0.0969577
137	0x3d08060d	0.033208895
138	0x3db72cba	0.08944078
139	0xbd1c970e	-0.038229994
140	0xbd58484f	-0.052803334
141	0x3ee39712	0.44451195
142	0x3e2193a8	0.15778983
143	0xbefcf0fc	-0.49402606
144	0x3e268b50	0.16264081
145	0x3db9944b	0.09061488
146	0xbe855ad6	-0.26045865
147	0x3c160158	0.009155594
148	0xbeb33063	-0.34997854
149	0x3e251bf5	0.16123946
150	0x3e65b684	0.22432905
151	0xbe86f81a	-0.2636116
152	0x3d757a2b	0.05993096
153	0xbeaddd6d	-0.33957997
154	0x3dcb7fb2	0.09936465
155	0x3ea145da	0.31498605
156	0x3ef26a1f	0.4734659
157	0xbcb26cdc	-0.021780424
158	0x3ba836aa	0.0051334696
159	0x3efaedbf	0.4900951
160	0xbef15fd4	-0.47143424
161	0x3de0f127	0.10983496
162	0x3dfbf971	0.123034365
163	0xbcbe76cc	-0.023250006
164	0x3e49747a	0.19673339
165	0xbe93ec42	-0.28891188
166	0x3f16286e	0.5865544
167	0xbe8da201	-0.27662662
168	0xbe888307	-0.26662466
169	0xbe90ee67	-0.28306887
170	0xbea6e5db	-0.3259724
171	0xbe8bcc9f	-0.2730455
172	0x3e1d501f	0.15362595
173	0x3e261187	0.16217624
174	0x3d345bcc	0.044032857
175	0x3db9c62c	0.090710014
176	0xbe570958	-0.20999658
177	0xbe8bdd5b	-0.27317318
178	0x3e37bc6b	0.1794297
179	0xbe29bc88	-0.16575825
180	0xbd8f2265	-0.06988982
181	0xbe755a70	-0.2396028
182	0x3e543359	0.20722713
183	0x3e06f59c	0.1317963
184	0xbee01dde	-0.43772787
185	0xbd6a7cb1	-0.05724782
186	0xbe82df47	-0.25560972
187	0x3e2bee95	0.1679023
188	0xbd1a8ec4	-0.03773381
189	0x3cbe8512	0.023256812
190	0xbe7d12ee	-0.24714252
191	0x3e5725e4	0.21010548
192	0xbe3ad821	-0.18246509
193	0xbcd2f8e2	-0.025753442
194	0xbb3e0990	-0.00289974
195	0xbe4e591d	-0.20151182
196	0x3da21b81	0.07915402
197	0x3da9c3fd	0.08289335
198	0xbe637b9a	-0.22215119
199	0x3d1ce5ee	0.038305216
200	0x3df9fa5c	0.122059554
201	0xbd4bef6f	-0.04978889
202	0x3eb980c6	0.3623106
203	0xbec5e420	-0.38650608
204	0x3ecef77d	0.40423194
205	0xbf18479e	-0.5948428
206	0xbecc5db0	-0.39915228
207	0x3e1111b7	0.14166914
208	0x3e5630ee	0.20917103
209	0x3e27aadc	0.16373771
210	0x3e0c5963	0.13705973
211	0x3f6b0d50	0.9181719
212	0xbe610df0	-0.21977973
213	0x3e6e3eef	0.23266195
214	0xbe158343	-0.14600854
215	0xbde73774	-0.11289874
216	0xbd0054e8	-0.031330973
217	0x3db802d2	0.08984913
218	0x3ea4e7c1	0.32208064
219	0xbeebcbbf	-0.46053883
220	0xbe849b36	-0.25899667
221	0xbdb07b81	-0.086173065
222	0x3ecf229f	0.404561
223	0xbbdf8685	-0.006821456
224	0x3e381815	0.17977937
225	0x3c92cf02	0.017920975
226	0x3d6c91a8	0.057756096
227	0x3da3d515	0.079996265
228	0x3e4cff95	0.20019372
229	0x3ea0d053	0.3140894
230	0xbe459e1b	-0.19298594
231	0x3d5f6f24	0.05454935
232	0x3e441c50	0.19151425
233	0xbdd50b82	-0.104025856
234	0xbe93bd6c	-0.28855455
235	0xbe6ed44e	-0.23323175
236	0x3d463302	0.04838849
237	0xbe0b6ee7	-0.13616525
238	0xbeb88a92	-0.3604322
239	0xbeb2c8d0	-0.34918833
240	0xbf078c53	-0.5294849
241	0xbdef42d7	-0.116826706
242	0xbe7c902d	-0.24664374
243	0xbd0e3538	-0.034718722
244	0xbe4ee531	-0.20204617
245	0x3eadcff5	0.3394772
246	0x3f0b10b1	0.54322344
247	0x3f4e9c18	0.8070693
248	0xbdc9651b	-0.098337375
249	0x3df2f60a	0.118633345
250	0x3cf1d15a	0.029518772
251	0xbd9b094a	-0.07570131
252	0x3ece63c5	0.40310493
253	0x3d3dbea2	0.04632438
254	0x3d383e1a	0.0449811
255	0x3d039d61	0.03213251

fc2.bias f4 [64]
0	0xbd93017d	-0.07178018
1	0x3d2de42c	0.04245393
2	0x3d947445	0.07248739
3	0x3c998256	0.018738907
4	0x3bdd782a	0.0067587094
5	0xbd6d469e	-0.057928674
6	0xbd2ab6d1	-0.041678254
7	0x3dba64ff	0.09101295
8	0xbd5ddb95	-0.054164488
9	0x3c12647d	0.008935091
10	0x3d89d0f9	0.067293115
11	0xb948c49a	-0.00019146726
12	0x3d0fcf33	0.03510971
13	0xbdcf3b4d	-0.101187326
14	0xbca115e0	-0.019663751
15	0x3df6fef1	0.12060345
16	0x3d9c519e	0.07632755
17	0xbcdf5178	-0.027260527
18	0xbdce98f7	-0.100877695
19	0xbddcad16	-0.10775201
20	0xbc6c6bf0	-0.014430031
21	0x3c9b9c54	0.018995441
22	0x3d1e164c	0.038595483
23	0x3c57dfd8	0.013175927
24	0x3b917bca	0.0044398056
25	0x3e1705e3	0.1474834
26	0x3db4aef4	0.08822432
27	0x3d8caf7a	0.06869407
28	0x3d164829	0.03668991
29	0xbca274b1	-0.019831033
30	0x3e44d1a6	0.192206
31	0x3a8c3aa5	0.001069863
32	0xbdb68eea	-0.089139774
33	0x3e00cb62	0.12577584
34	0x3de3a5c8	0.11115605
35	0xbd91fd03	-0.07128336
36	0xbbc41588	-0.005984012
37	0x3b907ae8	0.004409183
38	0x3baeb46a	0.0053315656
39	0xbcf67c1a	-0.030088473
40	0xbcfee7d4	-0.031116404
41	0x3dee80d4	0.11645666
42	0x3dcedf9a	0.10101242
43	0xbd971ec5	-0.07378916
44	0x3dce9c97	0.10088461
45	0x3e2825a2	0.16420606
46	0xbd34e0f0	-0.04415983
47	0xbdca328d	-0.09872923
48	0xbd81b1eb	-0.06332763
49	0xbd3b5af4	-0.045741037
50	0xbcdd2ee6	-0.026999902
51	0xbdc01ba4	-0.09380272
52	0xbdaa306f	-0.08310019
53	0x3db83c2a	0.089958504
54	0x3d2d1326	0.04225459
55	0x3cc642aa	0.02420171
56	0x3dc5fa65	0.096668996
57	0x3db1d8d9	0.086839385
58	0x3dc3673a	0.09541173
59	0xbd301526	-0.04298892
60	0xbcfaabf6	-0.030599575
61	0xbddb05a9	-0.10694439
62	0xbdf554f1	-0.11979092
63	0x3b8ce062	0.0042992095

fc3.weight f4 [4, 64]
0	0x3d8795e4	0.06620386
1	0xbed117ac	-0.40838373
2	0x3ea78474	0.3271824
3	0x3f028315	0.50981265
4	0xbc6c4395	-0.01442041
5	0xbd9e44bf	-0.07727956
6	0x3dac8721	0.08424211
7	0xbe52c2d2	-0.2058213
8	0xbcb478a0	-0.022030175
9	0xbefe4a4d	-0.49666062
10	0xbe771516	-0.24129137
11	0x3ec08944	0.37604725
12	0xbec1bc4a	-0.37838966
13	0x3ddc675c	0.10761902
14	0x3eea5bfd	0.45773306
15	0xbeac2592	-0.33622414
16	0xbed98e1a	-0.42491227
17	0xbd92f718	-0.07176036
18	0x3c9118d0	0.017712027
19	0x3d3d028e	0.046145014
20	0xbda1ac4b	-0.078941904
21	0x3d9f4033	0.07775917
22	0xbebff237	-0.37489483
23	0x3b0cc0c0	0.0021477193
24	0xbdee781a	-0.11644001
25	0xbeebe0f2	-0.46070057
26	0x3ebeaf0d	0.37242928
27	0x3ecc0ffe	0.3985595
28	0x3e94f21b	0.29090962
29	0xbd906754	-0.07050958
30	0xbf041a4a	-0.51602614
31	0x3dc56606	0.096386
32	0x3d857460	0.065163374
33	0xbea7d7ac	-0.32781732
34	0xbe903541	-0.2816563
35	0xbd2b2676	-0.041784726
36	0xbd04ab98	-0.032390207
37	0x3d48bf7c	0.04901074
38	0xbd8cfc7e	-0.068840966
39	0x3db46e77	0.08810132
40	0x3d86802d	0.06567416
41	0xbeb6e616	-0.35722417
42	0xbee34fb8	-0.44396758
43	0x3d9fe896	0.07808034
44	0x3e55c417	0.20875584
45	0xbec20e80	-0.37901688
46	0x3dc555eb	0.09635528
47	0xbc9ef779	-0.019405114
48	0x3d634624	0.055486813
49	0x3ed3569c	0.41277015
50	0xbd84b576	-0.064799234
51	0xbc519748	-0.012792416
52	0xbdc50a88	-0.09621149
53	0x3eaed45f	0.341464
54	0xbea5f50f	-0.32413527
55	0x3e974f19	0.29552534
56	0xbee3039f	-0.443387
57	0x3ea48818	0.3213508
58	0x3ec68284	0.3877145
59	0x3da3b862	0.079941526
60	0xbd57b214	-0.052660063
61	0x39270681	0.00015928784
62	0x3d600774	0.054694608
63	0x3edc49be	0.4302501
64	0x3c385990	0.011251822
65	0xbedf834a	-0.43654853
66	0x3e7acbee	0.24491856
67	0x3eed8e76	0.46397752
68	0x3d326c2c	0.043560192
69	0x3bf49579	0.0074641076
70	0xbcd00bbf	-0.025396226
71	0xbe8dd15b	-0.27698788
72	0x3d94ec92	0.07271685
73	0xbe9cb0cb	-0.30603632
74	0xbe603839	-0.21896447
75	0x3ea830fd	0.32849875
76	0xbe7bc0ba	-0.24585238
77	0x3d966bb6	0.07344763
78	0x3ee1f202	0.4412995
79	0xbedabfeb	-0.42724547
80	0xbec37456	-0.38174695
81	0xbd1da972	-0.038491674
82	0x3ddc12e2	0.10745789
83	0x3c2fb99d	0.010725406
84	0xbdbe70dd	-0.09298871
85	0xbdc39097	-0.09549063
86	0xbf0ee18c	-0.5581291
87	0xbd99ae6f	-0.07503974
88	0xbd8b3ddf	-0.0679891
89	0xbedff022	-0.43737894
90	0x3eab4093	0.33447704
91	0x3ec0a6f9	0.3762739
92	0x3eb9e959	0.36310843
93	0xbcac245e	-0.021013435
94	0xbefa57f2	-0.48895222
95	0xbd181c8b	-0.037136596
96	0xbc65040a	-0.013978014
97	0xbecdc452	-0.40188843
98	0xbee01d77	-0.4377248
99	0xbc75ad00	-0.01499486
100	0xbdb8125d	-0.089878775
101	0xbd2c0966	-0.04200115
102	0xbc362861	-0.0111180255
103	0xbdbbacd0	-0.09163821
104	0xbb441e9c	-0.0029925471
105	0xbefabbee	-0.48971504
106	0xbec0aa6b	-0.3763002
107	0x3db35c94	0.08757892
108	0x3eafb85b	0.3432034
109	0xbe9edb92	-0.31026894
110	0x3cded847	0.027202738
111	0x3dd1a40f	0.1023637
112	0x3dbf2e5a	0.09335013
113	0x3eb07561	0.34464553
114	0x3cadb51c	0.021204524
115	0xbd3cb3d7	-0.046069946
116	0xbd915cc2	-0.0709777
117	0x3ec34117	0.38135597
118	0xbe75de81	-0.2401066
119	0x3e79cc5f	0.24394368
120	0xbea61651	-0.324389
121	0x3e8f7053	0.28015384
122	0x3ed103c2	0.4082318
123	0x3d4cae39	0.04997084
124	0x3d724c48	0.05915478
125	0x3c02a071	0.0079728225
126	0x3d09b281	0.0336175
127	0x3f0cfdb1	0.550746
128	0x3d0f0a1d	0.034921754
129	0xbf2b1eb4	-0.66843724
130	0x3e9b16da	0.30290872
131	0x3f025208	0.5090642
132	0x3dc755d3	0.097331665
133	0x3d6f34bc	0.0583999
134	0xbd158311	-0.036501948
135	0xbe1d88a2	-0.15384153
136	0x3d035d82	0.032071598
137	0xbedbca79	-0.42927912
138	0xbf1793e9	-0.5921007
139	0x3eb84601	0.3599091
140	0xbeb864e6	-0.3601448
141	0xbcea9c98	-0.028639123
142	0x3ed5746e	0.4169039
143	0xbea01f9e	-0.31274122
144	0xbe87a299	-0.2649124
145	0xbcaf3695	-0.021388331
146	0x3d028d91	0.03187329
147	0xbd624f1c	-0.055251226
148	0x3d1f9bc7	0.03896692
149	0x3d33c2b2	0.043886848
150	0xbe94ff3b	-0.29100975
151	0x3c2235cb	0.009900521
152	0x3d4ff6ab	0.05077235
153	0xbea41c43	-0.32052812
154	0x3eb9e029	0.36303833
155	0x3eac59c5	0.3366224
156	0x3e24a38b	0.16078012
157	0xbd03f5d6	-0.03221687
158	0xbf3045cc	-0.688565
159	0xbbdae4c7	-0.0066801044
160	0x3aa537cd	0.0012605131
161	0xbe9aae3c	-0.30211055
162	0xbeae1fc2	-0.34008604
163	0xbbbebe63	-0.0058210357
164	0x3c6685ec	0.014070015
165	0x3d891ad8	0.06694573
166	0x3c947028	0.018119887
167	0x3d3c5c57	0.0459865
168	0x3dc33e86	0.0953341
169	0xbebcb231	-0.368547
170	0xbec62ad3	-0.38704547
171	0xbd1b4fa3	-0.037917744
172	0x3ea3cecc	0.3199371
173	0xbe9a4126	-0.3012783
174	0xbd830b7d	-0.063986756
175	0xbd6dc1a0	-0.058045983
176	0xbbb7c000	-0.005607605
177	0x3ef4872f	0.47759387
178	0xbc586bbe	-0.0132092815
179	0x3dc7ebc2	0.09761764
180	0xbd724f30	-0.05915755
181	0x3ec8ac46	0.39193934
182	0xbede355a	-0.4340008
183	0x3ee1b055	0.44079843
184	0xbf0165bf	-0.5054588
185	0x3ecbd218	0.39808726
186	0x3ea94ea6	0.33067816
187	0xbd9c9e64	-0.07647398
188	0xbc66e228	-0.014092006
189	0xbd13c91a	-0.036080457
190	0x3bfc36c2	0.0076969573
191	0x3eb0d76d	0.34539357
192	0xbce75b9f	-0.02824193
193	0xbee768a8	-0.45197034
194	0x3eaf82b1	0.34279397
195	0x3efdf877	0.49603626
196	0x3cdd4c1e	0.027013835
197	0xbb595972	-0.0033164886
198	0xbdb96d3c	-0.09054038
199	0xbea4fc9e	-0.32223982
200	0xbdb13e0c	-0.086544126
201	0xbed8cb00	-0.42342377
202	0xbeb895ae	-0.36051697
203	0x3ea698ae	0.3253836
204	0xbec4ca1e	-0.38435453
205	0x3d54b082	0.051926143
206	0x3ece39db	0.40278515
207	0xbeb7e792	-0.35918862
208	0xbeca44bc	-0.39505565
209	0x3d8dcb1c	0.06923506
210	0xbe011641	-0.12606145
211	0x3d34e1b1	0.04416055
212	0x3df55bb6	0.11980383
213	0x3dce5402	0.10074617
214	0xbebe41ce	-0.3715958
215	0x3d9d2802	0.076736465
216	0xbd1a8d38	-0.037732333
217	0xbeb6330d	-0.35585824
218	0x3ec1cd88	0.3785212
219	0x3ec718d4	0.3888613
220	0x3eb5a310	0.3547597
221	0xbcb1c6ba	-0.021701206
222	0xbf14fa45	-0.5819438
223	0x3d819a03	0.063282035
224	0xbdb1f4b5	-0.08689252
225	0xbea10262	-0.3144713
226	0xbeb9703e	-0.36218446
227	0xbd043ed0	-0.032286465
228	0xbde3e6a1	-0.11127973
229	0xbd9828a0	-0.074296236
230	0xbcd528ab	-0.026020369
231	0x3cfa80a1	0.030578913
232	0x3d08c6a8	0.03339258
233	0xbedbdddc	-0.42942703
234	0xbec6b0ef	-0.38806865
235	0xbdcd262f	-0.100170486
236	0x3eb4a58a	0.35282546
237	0xbee50b52	-0.447352
238	0xbccc99b0	-0.024975628
239	0xbcbbaf62	-0.022910777
240	0xbcc9baf5	-0.02462528
241	0x3ee2aa06	0.44270343
242	0x3d46491a	0.04840956
243	0x3d5882dc	0.052859172
244	0x3dd2b321	0.102880724
245	0x3e6987aa	0.22805658
246	0xbe925054	-0.2857691
247	0x3ec3617f	0.3816032
248	0xbeb891d5	-0.3604876
249	0x3e8d5afc	0.27608478
250	0x3e9d64a6	0.3074085
251	0xbd881c57	-0.066460304
252	0xbc59f560	-0.013303131
253	0xbcfba223	-0.030716961
254	0xbda12d0d	-0.07869921
255	0x3ef79478	0.4835546

fc3.bias f4 [4]
0	0xbe24e779	-0.16103925
1	0xbccbeebe	-0.024894115
2	0xbc916191	-0.017746719
3	0xbce25d30	-0.027632326
